# parameters
nc: 80  # number of classes
depth_multiple: 0.33  # model depth multiple
width_multiple: 0.5  # layer channel multiple

# anchors
anchors: 
  #- [ 5,15,  22,20,  19,47 ]  # P2/4
  #- [19,27,  44,40,  38,94]  # P3/8
  #- [96,68,  86,152,  180,137]  # P4/16
  #- [140,301,  303,264,  238,542]  # P5/32
  #- [436,615,  739,380,  925,792]  # P6/64
  #-[1000,1000, 1000,550, 1000,500 ]
  
 #- [72,47,  98,76,  174,62]
 #- [136,169,  236,133,  506,79]
# - [238,243,  379,177,  412,273]
 #- [314,383,  625,260,  510,358]
 #- [427,455,  683,377,  502,641]
 #- [713,505,  1001,442,  846,733]
 
- [13,16,  18,38,  33,22]
- [29,66,  50,41,  44,113]
- [112,46,  72,75,  78,169]
- [126,105,  276,109,  122,285]
- [189,187,  337,262,  211,422]
- [394,618,  671,374,  933,805]

# YOLOv5 backbone
backbone:
  # [from, number, module, args]
  [ [ -1, 1, Focus, [ 64, 3 ] ],  # 0-P1/2
    [ -1, 1, Conv, [ 128, 3, 2 ] ],  # 1-P2/4
    [ -1, 3, C3, [ 128 ] ],
    [ -1, 1, Conv, [ 256, 3, 2 ] ],  # 3-P3/8
    [ -1, 9, C3, [ 256 ] ],
    [ -1, 1, Conv, [ 512, 3, 2 ] ],  # 5-P4/16
    [ -1, 9, C3, [ 512 ] ],
    [ -1, 1, Conv, [ 768, 3, 2 ] ],  # 7-P5/32
    [ -1, 3, C3, [ 768 ] ],
    [ -1, 1, Conv, [ 1024, 3, 2 ] ],  # 9-P6/64
    [ -1, 3, C3, [ 1024 ] ],
    [ -1, 1, Conv, [ 1280, 3, 2 ] ],  # 11-P7/128
    [ -1, 1, SPP, [ 1280, [ 3, 5 ] ] ],
    [ -1, 3, C3TR, [ 1280, False ] ],  # 13
  ]

# YOLOv5 head
head:
  [ [ -1, 1, Conv, [ 1024, 1, 1 ] ],
    [ -1, 1, nn.Upsample, [ None, 2, 'nearest' ] ],
    [ [ -1, 10 ], 1, Concat, [ 1 ] ],  # cat backbone P6
    [ -1, 3, C3, [ 1024, False ] ],  # 17

    [ -1, 1, Conv, [ 768, 1, 1 ] ],
    [ -1, 1, nn.Upsample, [ None, 2, 'nearest' ] ],
    [ [ -1, 8 ], 1, Concat, [ 1 ] ],  # cat backbone P5
    [ -1, 3, C3, [ 768, False ] ],  # 21

    [ -1, 1, Conv, [ 512, 1, 1 ] ],
    [ -1, 1, nn.Upsample, [ None, 2, 'nearest' ] ],
    [ [ -1, 6 ], 1, Concat, [ 1 ] ],  # cat backbone P4
    [ -1, 3, C3, [ 512, False ] ],  # 25

    [ -1, 1, Conv, [ 256, 1, 1 ] ],
    [ -1, 1, nn.Upsample, [ None, 2, 'nearest' ] ],
    [ [ -1, 4 ], 1, Concat, [ 1 ] ],  # cat backbone P3
    [ -1, 3, C3, [ 256, False ] ],  # 29 (P3/8-small)
    
     [ -1, 1, Conv, [ 128, 1, 1 ] ],
    [ -1, 1, nn.Upsample, [ None, 2, 'nearest' ] ],
    [ [ -1, 2 ], 1, Concat, [ 1 ] ],  # cat backbone P2
    [ -1, 1, C3, [ 128, False ] ],  # 33 (P2/4-xsmall)
    
    [ -1, 1, Conv, [ 128, 3, 2 ] ],
    [ [ -1, 30 ], 1, Concat, [ 1 ] ],  # cat head P3
    [ -1, 3, C3, [ 256, False ] ],  # 36 (P3/8-small)

    [ -1, 1, Conv, [ 256, 3, 2 ] ],
    [ [ -1, 26 ], 1, Concat, [ 1 ] ],  # cat head P4
    [ -1, 3, C3, [ 512, False ] ],  # 39 (P4/16-medium) 

    [ -1, 1, Conv, [ 512, 3, 2 ] ],
    [ [ -1, 22 ], 1, Concat, [ 1 ] ],  # cat head P5
    [ -1, 3, C3, [ 768, False ] ],  # 42 (P5/32-large) 

    [ -1, 1, Conv, [ 768, 3, 2 ] ],
    [ [ -1, 18 ], 1, Concat, [ 1 ] ],  # cat head P6
    [ -1, 3, C3, [ 1024, False ] ],  # 45 (P6/64-xlarge) #42

    [ -1, 1, Conv, [ 1024, 3, 2 ] ],
    [ [ -1, 14 ], 1, Concat, [ 1 ] ],  # cat head P7
    [ -1, 3, C3, [ 1280, False ] ],  # 48 (P7/128-xxlarge) #45

    [ [ 33, 36, 39, 42, 45,48 ], 1, Detect, [ nc, anchors ] ],  # Detect(P2,P3, P4, P5, P6, P7)
    #[ [ 29, 32, 35, 38, 41 ], 1, Detect, [ nc, anchors ] ],  # Detect(P3, P4, P5, P6, P7)
  ]
